lightning_logs/version_37/checkpoints/epoch=7-step=51375.ckpt (torch, 244480 bytes, 96 tensors)

edge_1.nn.0.weight f4 [32, 16]
0	0xbd97fcde	-0.074212775
1	0xbc55c151	-0.0130465785
2	0x3e8ec9ae	0.27888244
3	0x3d3ede26	0.046598576
4	0xbeaab80f	-0.3334355
5	0x3ea0256d	0.31278554
6	0xbe2e788d	-0.17038174
7	0x40988d7b	4.7672706
8	0xbee487c9	-0.44634846
9	0x3e64f533	0.22359161
10	0x3e7e5d7b	0.24840347
11	0xbe99bfa7	-0.30029032
12	0xbee77c21	-0.4521189
13	0xbe825c1f	-0.25460908
14	0x3eed34e0	0.46329403
15	0xc0597796	-3.397924
16	0xbb9c1e8d	-0.004764384
17	0xbd87bf91	-0.06628335
18	0x3b51b093	0.0031996116
19	0xbbc1e9a4	-0.0059177447
20	0xbd856db3	-0.06515064
21	0xbde98bbf	-0.114036076
22	0xbde61d38	-0.11236042
23	0xc0164e67	-2.3485353
24	0xbe2bb2b8	-0.16767395
25	0x3e0c519d	0.13703008
26	0x3f651729	0.89488465
27	0x3f1be1cd	0.6089142
28	0x3bed19b5	0.0072357305
29	0x3e77c4ac	0.24196118
30	0xbe36048d	-0.17775173
31	0xc03e40b5	-2.9726994
32	0x3e83d6b6	0.2574975
33	0x3d45dc86	0.04830601
34	0x3e28185a	0.1641554
35	0x3e2dbffa	0.16967764
36	0x3eb0625b	0.3445004
37	0xbf7e155b	-0.99251336
38	0x3e82292e	0.25422043
39	0xc062dfb8	-3.5449047
40	0x3dfa8a8b	0.12233456
41	0x3e8f9bd2	0.2804857
42	0xbe44cc53	-0.19218569
43	0xbe4b9aff	-0.19883345
44	0x3eaf512c	0.34241617
45	0x3f2d0df4	0.67599416
46	0xbf538300	-0.82621765
47	0x3fa1a899	1.2629577
48	0x3d084922	0.03327287
49	0x3ab60c20	0.0013889112
50	0x3d82998b	0.06376942
51	0x3d00731e	0.031359784
52	0x3dc60bbf	0.09670209
53	0xbf029294	-0.5100491
54	0x3f9ea836	1.2395084
55	0x40cac07d	6.335997
56	0x3dd7659c	0.10517427
57	0xbebcf2b2	-0.36903912
58	0xbcc59820	-0.02412039
59	0x3bf7ae9b	0.0075586564
60	0x3e2f2e6f	0.17107557
61	0x3ee04705	0.43804184
62	0xc0060999	-2.0943358
63	0x3e5c5232	0.2151573
64	0xbcabb44a	-0.020959992
65	0x3d35e004	0.04440309
66	0x3beaec9b	0.007169319
67	0xbbf9d1ea	-0.0076239007
68	0xbc4368d8	-0.011926852
69	0x3dc85f03	0.09783747
70	0x3d3d4f41	0.04621816
71	0x3f9f7409	1.2457286
72	0xbf03b06e	-0.51441085
73	0x3d6c3c39	0.05767462
74	0x3f90ac21	1.130253
75	0xbe8e4579	-0.27787378
76	0x3ce486f0	0.027896374
77	0xbf7fdaf0	-0.9994345
78	0x3f093c89	0.53607994
79	0x4082847c	4.0786724
80	0x3eef8420	0.4678049
81	0xbe85eb52	-0.26156098
82	0xbb7f7e6b	-0.0038985263
83	0xbcc17c2b	-0.023618778
84	0x3e1a7b3e	0.15086076
85	0x40899e31	4.3005605
86	0xc00ec710	-2.2308998
87	0x3e20372a	0.15646043
88	0xbda8026c	-0.08203587
89	0x3d85fce9	0.065423794
90	0x3cbf4654	0.023348965
91	0xbdb2b5f5	-0.08726112
92	0x3d1081d4	0.035280064
93	0xbf4a2e27	-0.7897667
94	0x3f729fa7	0.9477486
95	0xbdfb9a6d	-0.12285314
96	0x3cbf0762	0.02331895
97	0x3ce3a0ff	0.02778673
98	0xbddf6e87	-0.10909753
99	0x3e4e5ca1	0.20152523
100	0x3f51dac1	0.81974417
101	0xbe8452a7	-0.2584431
102	0xbece33b6	-0.40273827
103	0xbff69b41	-1.926613
104	0x3e3d2378	0.18470562
105	0xbe15e790	-0.14639115
106	0xbde14d2a	-0.11001046
107	0x3d40a8fd	0.04703616
108	0x3e9bbf10	0.30419207
109	0x3f9c7914	1.222445
110	0xbe32941c	-0.17439312
111	0x3fbaf762	1.4606745
112	0xbd1a1aeb	-0.037623327
113	0x3cdd29e6	0.026997518
114	0x3d7e8bb3	0.062144946
115	0xbe7dfd28	-0.24803603
116	0xbeb1ab1c	-0.3470086
117	0xbedb76bd	-0.42864028
118	0xbea17362	-0.31533343
119	0xc0305635	-2.7552617
120	0x3ed4d187	0.41566107
121	0x3dec1e9b	0.11529275
122	0x3e1d0663	0.15334468
123	0xbdbfc834	-0.093643576
124	0xbed9bd62	-0.425273
125	0xbedac9ec	-0.4273218
126	0xbf35057a	-0.7071148
127	0xbfe76aaf	-1.8079432
128	0xbbb159e9	-0.0054123295
129	0x3da0b78f	0.07847511
130	0xbb1eabba	-0.0024211244
131	0xbc6baf16	-0.014385005
132	0x3e889db5	0.2668282
133	0xbd12dc50	-0.035854638
134	0xbd91c904	-0.07118419
135	0x3d14bb4b	0.03631143
136	0xbeb9ac14	-0.36264098
137	0xbff68cfa	-1.9261773
138	0xbf51162c	-0.81674457
139	0x3e920743	0.28521165
140	0xbc113fb7	-0.008865288
141	0x3e5f13e8	0.21784937
142	0xbd78bfe1	-0.060729865
143	0xbf2d35f8	-0.67660475
144	0x3cc9ede0	0.02464956
145	0xbc704fe7	-0.014667488
146	0x3b309a18	0.0026947316
147	0xbcc43d97	-0.02395515
148	0xbe2e2143	-0.17004876
149	0x3e955b2d	0.29171124
150	0xbd02b3aa	-0.031909622
151	0x4057001a	3.3593812
152	0x3d6f8692	0.058477946
153	0xbc68b2e9	-0.014202812
154	0x3d6480e2	0.055786975
155	0x3b0c29dc	0.0021387255
156	0xbe28059b	-0.16408388
157	0x3f1586d5	0.5840886
158	0xbf1b8a80	-0.6075821
159	0x4080f6e2	4.030137
160	0xbdaca5c4	-0.08430055
161	0xbc33e360	-0.010979503
162	0xbd0c2c5d	-0.034221996
163	0xbd2653d4	-0.04060729
164	0x3d868c55	0.06569735
165	0xbe288e7e	-0.16460606
166	0x3dcbcce9	0.09951193
167	0x40b35c65	5.6050286
168	0x3ed55230	0.41664267
169	0xbd717e6b	-0.058958452
170	0xbd0f028e	-0.034914546
171	0xbd9e9500	-0.07743263
172	0xbdd7585b	-0.10514899
173	0x3e7c5878	0.24643123
174	0xbdfed0fe	-0.12442206
175	0xc0107005	-2.2568371
176	0xbe032a96	-0.12809214
177	0x3de1a6d9	0.11018152
178	0xbbb9de41	-0.0056722467
179	0xbd08b8e2	-0.033379443
180	0x3f02e8b9	0.51136357
181	0xc0081c3f	-2.126724
182	0x3fb58848	1.4182215
183	0xc0005075	-2.0049107
184	0x3ee34fcb	0.44396815
185	0xbf3eee35	-0.74582225
186	0x3e53919a	0.20661011
187	0xbe1f2dff	-0.1554489
188	0x3e652666	0.22377929
189	0x3f6141a8	0.8799081
190	0xbe161efd	-0.14660259
191	0xbe8f92b2	-0.28041607
192	0xbc23ba08	-0.009993084
193	0xbd24dc31	-0.040249053
194	0xb996e5a5	-0.00028781328
195	0x3b393efa	0.0028266297
196	0xbbc17221	-0.005903498
197	0x3d78a5e3	0.060705077
198	0xbb4253f0	-0.0029652081
199	0x401214f3	2.2825286
200	0xbf4cc185	-0.7998279
201	0x3f38db2f	0.7220945
202	0xbfaeb6e1	-1.364956
203	0x3ea3e50f	0.32010695
204	0x3a8326b4	0.0010006041
205	0xbe436921	-0.19083072
206	0x3e3f2a53	0.18668489
207	0xbf25464b	-0.64560384
208	0x3d982ae7	0.07430058
209	0xbafd61a6	-0.001933147
210	0xbf2da5ca	-0.678311
211	0x3d61b428	0.05510345
212	0xbefb69ba	-0.491041
213	0xbebde1e3	-0.370864
214	0x3e606ae6	0.21915779
215	0x3eec86af	0.46196505
216	0x3eabec9e	0.33578962
217	0x3e6be26d	0.23035593
218	0x3be7d96b	0.007075479
219	0x3d5cf7ac	0.053947136
220	0xbe49cc70	-0.19706893
221	0x3e825d26	0.25461692
222	0xbe5e1853	-0.21688966
223	0x3e47354a	0.19453922
224	0xbd7098cf	-0.05873948
225	0x3d182fce	0.037154965
226	0xbc9e85f3	-0.019350981
227	0xbd58e260	-0.052950263
228	0xbe050a3a	-0.12992182
229	0xbe915334	-0.2838379
230	0xbdc1fbd3	-0.0947186
231	0xc099c0f9	-4.804806
232	0xbec697cb	-0.38787684
233	0x3e2a2e17	0.16619144
234	0xbd8cb3fd	-0.068702675
235	0xbed1ae08	-0.40953088
236	0xbeff95ff	-0.49919125
237	0x3c2883b5	0.010285308
238	0x3d859c84	0.065239936
239	0x3f4c2b44	0.7975352
240	0xbbaef674	-0.005339438
241	0x3e55399c	0.20822757
242	0xbd3d9d1a	-0.0462924
243	0x3de60b8a	0.1123267
244	0x3e796c54	0.2435773
245	0xbf408de0	-0.75216484
246	0x3f2c2cc2	0.67255795
247	0xbff0494a	-1.8772366
248	0xbe7023b6	-0.23451123
249	0x3e4f6c90	0.20256257
250	0x3f2705e1	0.65243345
251	0xbe948b8a	-0.2901271
252	0xbe63324f	-0.2218716
253	0x3f7b1f55	0.98094684
254	0x3ede1b7f	0.43380353
255	0x3eac82eb	0.33693632

edge_1.nn.0.bias f4 [32]
0	0xbd50eb5d	-0.05100571
1	0x3e459342	0.19294456
2	0x3d8e49ee	0.06947695
3	0xbe064906	-0.13113794
4	0xbe189f15	-0.14904435
5	0x3b847926	0.0040427623
6	0x3e276a3e	0.16349122
7	0x3e49560d	0.19661732
8	0x3e7923da	0.24330083
9	0x3dab0e0b	0.08352288
10	0xbdd788c3	-0.10524132
11	0xbd85ae00	-0.065273285
12	0xbe48c379	-0.19605817
13	0x3e86770d	0.26262704
14	0xbe5ad799	-0.21371306
15	0x3e1a7d2c	0.15086812
16	0xbe7304a2	-0.23732236
17	0x3da4b499	0.08042259
18	0xbdf191f9	-0.1179542
19	0xbe2b5b09	-0.16733946
20	0xbda72f67	-0.08163338
21	0x3e383170	0.17987609
22	0x3e3cf2cf	0.18451999
23	0x3dc196c5	0.09452585
24	0xbe6a2e2c	-0.22869176
25	0x3d3c244a	0.045933045
26	0xbe390a05	-0.18070228
27	0xbe081a6b	-0.13291328
28	0x3e0bf883	0.13669018
29	0x3e1ad80e	0.15121481
30	0xbc42a521	-0.01188019
31	0x3db76a3f	0.08955812

edge_1.nn.1.weight f4 [32]
0	0x3f94662b	1.1593679
1	0x3fa39728	1.2780504
2	0x3f520a27	0.8204674
3	0x3f5de791	0.8668147
4	0x3fc73d07	1.5565499
5	0x3f3870ee	0.7204732
6	0x3f6a4e00	0.9152527
7	0x3f0043f7	0.50103706
8	0x3f7eee43	0.9958231
9	0x3f70d804	0.94079614
10	0x3f463ab7	0.7743334
11	0x3f74e6ea	0.95664847
12	0x3fce979d	1.6140019
13	0x3f5a92e3	0.8538038
14	0x3f852608	1.0402231
15	0x3f4ec25b	0.8076531
16	0x3f3eea36	0.7457613
17	0x3f5ae83d	0.8551062
18	0x3f6f61c0	0.9350853
19	0x3f9010ce	1.1255128
20	0x3f46103d	0.7736853
21	0x3f0b9d1e	0.54536617
22	0x3fe72aa6	1.805989
23	0x3f60b895	0.8778165
24	0x3f793f0a	0.97361815
25	0x3f106bc5	0.56414443
26	0x3f80a429	1.0050098
27	0x3f2b6d9c	0.66964126
28	0x3f614d21	0.88008314
29	0x3f4e6242	0.8061868
30	0x3f54ac69	0.8307558
31	0x3f2f1fe5	0.6840804

edge_1.nn.1.bias f4 [32]
0	0xbed90848	-0.4238913
1	0xbd191635	-0.037374694
2	0xbee61cc9	-0.44943836
3	0xbc884df1	-0.016638728
4	0xbcf52f67	-0.02992983
5	0xbeef0de2	-0.4669028
6	0xbe6c3c3b	-0.23069851
7	0xbe30ace4	-0.17253453
8	0xbd6b4406	-0.05743792
9	0x3e9b35f6	0.30314606
10	0x3eb7e21a	0.3591469
11	0xbe587d75	-0.21141608
12	0x3e356995	0.17716058
13	0xbea0dfa8	-0.31420636
14	0x3e8d2cad	0.27573147
15	0xbee25a01	-0.44209293
16	0xbe032233	-0.12806015
17	0x3d823b68	0.06358987
18	0x3dac84fb	0.084238015
19	0xbe08c9b5	-0.13358195
20	0x3e74430a	0.23853698
21	0xbe2b1295	-0.16706307
22	0x3d2f91e1	0.04286373
23	0xbe9aa038	-0.30200362
24	0xbdc932d8	-0.09824151
25	0x3ed3fadd	0.4140233
26	0xbd7a58f8	-0.061120003
27	0xbe1c4c66	-0.15263519
28	0xbf31bc71	-0.69428164
29	0xbe6d59f3	-0.23178844
30	0xbd930288	-0.07178217
31	0xbe2f5415	-0.17121918

edge_1.nn.1.running_mean f4 [32]
0	0x41f624d0	30.767975
1	0xc042be0f	-3.0428503
2	0x42857225	66.72294
3	0x4178f438	15.559624
4	0xbfba572c	-1.4557853
5	0x3f8a818a	1.0820782
6	0x425e3de4	55.56044
7	0xc2664267	-57.564846
8	0x409007dd	4.50096
9	0xc11e99ec	-9.912579
10	0xc13d928e	-11.84828
11	0x40cfd50f	6.494758
12	0x3f399a35	0.72500926
13	0xc2996e9b	-76.71603
14	0xc187faef	-16.997526
15	0x41d05863	26.043158
16	0xc1116f9c	-9.089748
17	0x40b1a396	5.551219
18	0xc0ae4131	-5.445458
19	0xbfcae424	-1.5850873
20	0x3ff9f11d	1.9526707
21	0xc27372ef	-60.86224
22	0x403ae73d	2.9203637
23	0x4015a045	2.337907
24	0xc1954724	-18.659737
25	0xc1b009bf	-22.004759
26	0xc1866c44	-16.802864
27	0xc2272153	-41.782543
28	0x4293bacb	73.86483
29	0xc1d1bfde	-26.218685
30	0xc202d96b	-32.712322
31	0x42a110fc	80.53317

edge_1.nn.1.running_var f4 [32]
0	0x44919350	1164.6035
1	0x45393fcc	2963.9873
2	0x45aafd44	5471.658
3	0x433666ff	182.40233
4	0x45069360	2153.211
5	0x4332cbcf	178.79613
6	0x45ce1300	6594.375
7	0x461b210b	9928.261
8	0x44ceb5a8	1653.6768
9	0x42db553e	109.66649
10	0x4398fc83	305.97275
11	0x43f41813	488.18808
12	0x454f5350	3317.207
13	0x44da5dc0	1746.9297
14	0x447945f3	997.09296
15	0x455bd21b	3517.1316
16	0x45337c60	2871.7734
17	0x44ce47b1	1650.2404
18	0x450b5c79	2229.7795
19	0x44dd651b	1771.1595
20	0x45059343	2137.2039
21	0x458e27bd	4548.9673
22	0x458497e9	4242.989
23	0x4556940a	3433.2524
24	0x456f14c0	3825.2969
25	0x4529209a	2706.0376
26	0x45114c75	2324.7786
27	0x4583eeb8	4221.84
28	0x44f35863	1946.7621
29	0x45dbc991	7033.196
30	0x4519cf15	2460.9426
31	0x451f38d2	2547.5513

edge_1.nn.3.weight f4 [32, 32]
0	0x3e15f7ac	0.1464526
1	0x3ddd0a95	0.10793034
2	0x3d7a8507	0.06116202
3	0xbeb02a4f	-0.3440728
4	0xbd08465f	-0.033270236
5	0x3d09c56c	0.03363554
6	0xbe02dc36	-0.12779316
7	0xbeb7ad17	-0.35874245
8	0x3e057625	0.1303335
9	0xbef1a485	-0.4719583
10	0x3d2616b1	0.040548984
11	0x3eb36c7e	0.3504371
12	0xbe287577	-0.1645106
13	0xbf168fe8	-0.58813334
14	0x3d8ddb2a	0.06926568
15	0x3d81b83a	0.063339666
16	0x3dc4775a	0.09593077
17	0x3e5beb47	0.2147647
18	0x3c82af5e	0.015952762
19	0x3e13add7	0.14421783
20	0xbd9508f5	-0.07277099
21	0xbebbf0c1	-0.36707118
22	0x3de75ad7	0.11296623
23	0xbe66da17	-0.22544132
24	0xbdf9c469	-0.121956654
25	0xbea592b0	-0.32338476
26	0x3f21f424	0.63263154
27	0x3e7a99fe	0.24472806
28	0x3e099e01	0.1343918
29	0xbccdbe49	-0.02511515
30	0x3c406719	0.01174333
31	0xbdc42f35	-0.095793165
32	0xbe667ef8	-0.22509372
33	0x3d4a00fb	0.04931734
34	0xbc81a424	-0.015825339
35	0xbebc5e97	-0.36790916
36	0xbf58ee94	-0.8473904
37	0xbdb71a22	-0.08940531
38	0xbcf89189	-0.030342834
39	0x3dea0855	0.114273705
40	0xbc81f380	-0.01586318
41	0xbe69a812	-0.2281802
42	0xbe126268	-0.14295352
43	0xbe96041a	-0.29300004
44	0xbe7360f4	-0.23767453
45	0xbc942694	-0.018084802
46	0xbd5f5121	-0.05452073
47	0x3eb6df2f	0.3571715
48	0xbebe70c2	-0.37195402
49	0xbe12ffbe	-0.1435537
50	0xbed708fb	-0.4199904
51	0xbf42d481	-0.76105505
52	0xbc85f14b	-0.016350409
53	0x3e257a35	0.161599
54	0x3da41c99	0.08013267
55	0xbe804f62	-0.25060564
56	0xbbacd455	-0.0052743354
57	0x3e73bd66	0.23802719
58	0xbdd7693b	-0.10518118
59	0xbd5929c9	-0.053018365
60	0x3cb47d99	0.022032546
61	0x3e831789	0.25603893
62	0xbd930d57	-0.07180279
63	0x3e8276af	0.25481173
64	0x3b54ed1a	0.0032489956
65	0xbe81275c	-0.2522534
66	0xbe8b17e4	-0.27166665
67	0x3e7155e3	0.2356792
68	0x3cf7b4e1	0.030237617
69	0x3d8bdd57	0.068293266
70	0x3e3f9db1	0.18712498
71	0x3de7d32c	0.11319575
72	0xbefbfbca	-0.49215537
73	0x3e6df514	0.23238021
74	0x3e80f1c1	0.25184444
75	0xbd097cc5	-0.033566255
76	0x3dc2e29b	0.09515878
77	0xbdbab018	-0.091156185
78	0xbeadfff5	-0.33984342
79	0x3e696ba6	0.22794971
80	0x3e510cb2	0.20414999
81	0xbdc9131f	-0.098181
82	0x3ee235d8	0.44181705
83	0xbf27e8c5	-0.65589553
84	0x3cb384a7	0.02191384
85	0xbcdfa7d9	-0.027301716
86	0x3d862440	0.06549883
87	0x3e1affa1	0.15136577
88	0x3d8e91b1	0.06961382
89	0x3de3010a	0.110841826
90	0xbeaed58a	-0.34147292
91	0xbe8a2b69	-0.26986244
92	0xbebf8977	-0.37409565
93	0xbe3fadb1	-0.18718602
94	0xbf0f70cf	-0.5603151
95	0xbe41395e	-0.1886954
96	0xbea0acd6	-0.31381863
97	0xbdc6bddf	-0.09704184
98	0xbcaca1b2	-0.021073196
99	0xbe0e6099	-0.13904037
100	0x3e2d25cd	0.16908951
101	0x3e3e7dad	0.18602629
102	0x3ddd1251	0.10794509
103	0x3c43286c	0.011911493
104	0xbde64115	-0.11242882
105	0x3e80c85b	0.2515286
106	0x3da48283	0.08032706
107	0x3ef85932	0.4850555
108	0xbe22ab69	-0.158857
109	0x3e58711a	0.21136895
110	0x3ea7374a	0.3265937
111	0xbea890fb	-0.3292311
112	0x3edd1d13	0.43186244
113	0x3ea0f90f	0.31440017
114	0xbf03773e	-0.51353824
115	0xbe4019a0	-0.18759775
116	0x3ec52cbe	0.38510698
117	0x3ecf4caa	0.40488178
118	0xbd4db8c1	-0.050225023
119	0x3c7c3b3a	0.01539498
120	0x3d846b0d	0.06465731
121	0xbe6c9e5e	-0.23107287
122	0x3d05c535	0.032658774
123	0x3e631cbb	0.22178929
124	0xbe829af5	-0.25508848
125	0x3edc7417	0.4305732
126	0xbe72f9bf	-0.23728083
127	0x3c5a4fe2	0.01332471
128	0xbea85599	-0.32877806
129	0xbec6440d	-0.38723794
130	0x3e404862	0.18777612
131	0xbe59df33	-0.2127655
132	0xbfa43fbe	-1.2831953
133	0xbe62bb30	-0.22141719
134	0x3de94b06	0.11391263
135	0x3d927946	0.07152037
136	0x3d5e1352	0.054217644
137	0xbe078220	-0.13233232
138	0xbe31aa48	-0.17350113
139	0xbe7ecb0a	-0.24882141
140	0xbcca41b1	-0.024689527
141	0xbe1e9ff4	-0.15490705
142	0xbdf12c1f	-0.117759936
143	0x3ea14742	0.31499678
144	0x3d12b195	0.035813887
145	0xbecdb9b7	-0.40180752
146	0xbef48f1f	-0.47765443
147	0xbd7dfd9c	-0.06200944
148	0x3e52585e	0.20541522
149	0x3d1358b4	0.035973266
150	0xbe324f5b	-0.17413084
151	0x3e1f29df	0.15543316
152	0x3ebcc235	0.36866918
153	0xbda2ae32	-0.07943381
154	0xbe8a3e80	-0.2700081
155	0x3d7918aa	0.060814537
156	0x3d8327d7	0.06404083
157	0x3cf1197f	0.029431103
158	0x3d251df1	0.040311757
159	0x3dc1eb21	0.094686754
160	0x3e645d4d	0.22301216
161	0xbd8de712	-0.06928839
162	0x3e68fe45	0.22753246
163	0x3d6c3b05	0.057673473
164	0xbf545a68	-0.8295045
165	0xbbcea700	-0.006306529
166	0x3e3c52bc	0.18390936
167	0x3dfe184b	0.12406977
168	0xbcafc0b7	-0.021454198
169	0xbee2d4f2	-0.4430309
170	0x3c8d1d31	0.017225834
171	0x3dc7ff9f	0.09765553
172	0xbeda73b7	-0.42666408
173	0x3d852593	0.06501307
174	0x3de125ab	0.10993513
175	0x3e9a849e	0.30179304
176	0x3c90bfa5	0.017669508
177	0xbeeadc79	-0.45871332
178	0x3e34b6e9	0.176479
179	0x3e2fbe42	0.17162421
180	0xbd82920e	-0.06375514
181	0x3d3c833e	0.0460236
182	0x3ece14cf	0.4025025
183	0x3e1a41ac	0.15064114
184	0x3e7d5088	0.24737751
185	0x3dfd3c4f	0.123650186
186	0xbd5b6823	-0.05356611
187	0xbd3ebfb8	-0.046569556
188	0xbe6684af	-0.22511552
189	0x3e84060c	0.25785863
190	0xbdf29ceb	-0.11846336
191	0xbba50222	-0.0050356546
192	0xbef64a89	-0.4810374
193	0x3e293445	0.16523845
194	0x3cc0d09d	0.023536975
195	0xbe0e1db7	-0.13878523
196	0x3e9b264e	0.30302662
197	0x3e85d80e	0.261414
198	0x3dbaf798	0.09129256
199	0xbed97f83	-0.42480096
200	0x3dfaf969	0.122546025
201	0xbeb3a2b7	-0.3508508
202	0x3d9f468e	0.07777129
203	0x3ec70118	0.38868022
204	0x3e92046a	0.28518993
205	0xbc3ca780	-0.0115145445
206	0xbe806a17	-0.2508094
207	0xbe86aa26	-0.26301688
208	0x3dbea88e	0.09309493
209	0x3ede9a96	0.43477315
210	0xbea96239	-0.3308275
211	0x3e1b0d34	0.15141755
212	0x3e82c9a1	0.25544456
213	0x3d00bb7c	0.0314288
214	0x3d513725	0.05107798
215	0x3a6c3f84	0.000901215
216	0xbe396b16	-0.18107256
217	0xbd33695a	-0.043801643
218	0x3c43a8df	0.0119421175
219	0x3daf6dc3	0.08565857
220	0x3d59746e	0.05308955
221	0xbc8996dc	-0.016795568
222	0xbee9947a	-0.4562109
223	0x3e68623f	0.22693728
224	0x3db7e2f5	0.089788355
225	0xbea7787c	-0.3270911
226	0x3df2f0f2	0.11862363
227	0xbe2d7ba0	-0.1694169
228	0xbe0580a9	-0.13037361
229	0xbe78edae	-0.24309418
230	0xbdb114e9	-0.086465664
231	0x3e44204f	0.1915295
232	0xbe3cc3c1	-0.18434049
233	0x3e3275a2	0.17427686
234	0xbd67cea8	-0.056593567
235	0xbdf3dad4	-0.119069725
236	0xbedf5aaf	-0.43623874
237	0x3d080b01	0.03321362
238	0xbdee4066	-0.11633377
239	0xbce8a555	-0.028399149
240	0x3e87b35a	0.26504022
241	0x3e1d4f8e	0.15362379
242	0x3d831695	0.064007916
243	0x3c343b6d	0.011000496
244	0xbd7a7431	-0.061145965
245	0xbe0fe2be	-0.14051339
246	0xbf803a21	-1.001774
247	0xbe1fa28b	-0.15589349
248	0xbe880f1d	-0.2657403
249	0x3e7fef77	0.24993692
250	0x3db47da5	0.08813027
251	0xbea9c786	-0.33160037
252	0x3ec5c43d	0.3862628
253	0x3ce6ba2b	0.028164944
254	0xbdfe859a	-0.12427826
255	0xbe387c5d	-0.18016191

edge_1.nn.3.bias f4 [32]
0	0xbe28a940	-0.16470814
1	0xbf123d47	-0.5712475
2	0x3c978b97	0.018499179
3	0x3e045962	0.12924722
4	0x3e6ad83d	0.22934051
5	0xbdd3f204	-0.10348895
6	0x3db8b7d3	0.09019437
7	0x3d661244	0.056169763
8	0x3e690ce4	0.22758824
9	0xbdf07959	-0.11741895
10	0xbbca4640	-0.0061729252
11	0xbe5e2875	-0.2169512
12	0x3e091799	0.13387908
13	0x3df1a6d3	0.11799397
14	0xbe7268d8	-0.23672807
15	0x3de27fdc	0.110595435
16	0x3e1dfc6c	0.15428323
17	0x3d14767f	0.03624582
18	0x3de3694c	0.11104068
19	0xbd59cf63	-0.053176295
20	0x3bf793dd	0.0075554685
21	0xbe49dde2	-0.19713548
22	0x3dbd65e9	0.092479534
23	0xbe098361	-0.13429023
24	0xbd01a329	-0.031649742
25	0xbe7b2c9b	-0.24528734
26	0xbe7edef2	-0.24889734
27	0x3d8dca36	0.06923334
28	0x3e546a5a	0.20743695
29	0x3df75544	0.1207681
30	0x3e671429	0.22566284
31	0xbe033842	-0.1281443

edge_1.nn.4.weight f4 [32]
0	0x3f8071eb	1.0034765
1	0x3fc303a2	1.5235484
2	0x3fa13cd7	1.2596692
3	0x3f63866b	0.8887698
4	0x3fef3102	1.8686831
5	0x3f85b4e2	1.0445826
6	0x3fa596fb	1.29367
7	0x3f6f5b13	0.93498343
8	0x3fb0badd	1.3807026
9	0x3f7ea31e	0.9946765
10	0x3fb687ff	1.4260253
11	0x3febd422	1.8424113
12	0x3f76293b	0.9615666
13	0x3f84fb34	1.0389161
14	0x3f5e855b	0.86922234
15	0x3efaf4f2	0.49015003
16	0x3f864c4f	1.0492038
17	0x3fb2679c	1.3937869
18	0x40102432	2.2522092
19	0x3f9b5073	1.2133926
20	0x3fb5bc2c	1.419805
21	0x3f4db90f	0.803605
22	0x3f2c500a	0.6730963
23	0x3f1ce620	0.6128864
24	0x3f57ac26	0.8424705
25	0x3fae4153	1.3613685
26	0x3fa1fd11	1.2655355
27	0x3fa81943	1.3132709
28	0x3fa8997f	1.3171843
29	0x3f965883	1.1745762
30	0x3fb0c40c	1.3809829
31	0x3f9cdce4	1.225491

edge_1.nn.4.bias f4 [32]
0	0xbed3b0d9	-0.41345862
1	0xbe2fd639	-0.17171563
2	0x3d6db883	0.058037292
3	0xbed7be51	-0.42137387
4	0xbccd58c9	-0.02506675
5	0xbe3ee002	-0.1864014
6	0xbec26977	-0.37971088
7	0xbecbbd59	-0.39792898
8	0xbe5343db	-0.20631354
9	0xbf4b6efc	-0.79466224
10	0xbe63c85d	-0.22244401
11	0xbeeddae2	-0.46456057
12	0xbeacab5b	-0.33724484
13	0xbea1adbf	-0.3157787
14	0xbeccbf59	-0.39989737
15	0xbe373149	-0.17889895
16	0xbe98ce41	-0.2984486
17	0x3ea58840	0.32330513
18	0xbf430d9d	-0.7619265
19	0xbe786b41	-0.24259664
20	0xbecb41e2	-0.39698702
21	0xbee16db8	-0.4402902
22	0xbeb3cc56	-0.35116833
23	0xbe2d7048	-0.16937363
24	0xbe22dfb4	-0.15905648
25	0xbdbfc751	-0.093641885
26	0x3f01faf6	0.5077356
27	0x3dd706ed	0.10499368
28	0x3e572fc9	0.21014322
29	0xbe693939	-0.22775735
30	0xbdf0c9cf	-0.11757242
31	0xbeaf1f0f	-0.34203383

edge_1.nn.4.running_mean f4 [32]
0	0xbee0f847	-0.4393942
1	0xbfe913a3	-1.8209118
2	0xbe850c15	-0.2598578
3	0x3f0b4e90	0.5441675
4	0xbf8bb58f	-1.0914782
5	0xbecd8184	-0.40137875
6	0x3e65e522	0.22450688
7	0xbf7a8d5d	-0.97871953
8	0xbf79b102	-0.9753572
9	0x3eb93eaf	0.36180636
10	0xbeaa9dfb	-0.33323655
11	0xbf7743df	-0.9658794
12	0x3e3e050e	0.18556616
13	0x3e315819	0.17318763
14	0x3f11e1c4	0.56985116
15	0xbf675200	-0.903595
16	0xbf365543	-0.7122385
17	0xbfb142df	-1.3848532
18	0xbed75443	-0.42056474
19	0xbe8f8fa9	-0.28039292
20	0xbf655c9b	-0.8959443
21	0x3f02c19b	0.5107667
22	0x3e4ec258	0.20191324
23	0xbf8f9edc	-1.1220355
24	0xbe96b4cf	-0.2943482
25	0xbf292053	-0.6606495
26	0xbfa1fa3e	-1.2654493
27	0xbf60d386	-0.8782276
28	0xbee13598	-0.439862
29	0xbe4128ec	-0.18863267
30	0xbf1d7691	-0.6150904
31	0x3f119d23	0.56880397

edge_1.nn.4.running_var f4 [32]
0	0x3e76d025	0.24102838
1	0x4007d2cc	2.122241
2	0x3f2a12f7	0.6643519
3	0x3fb3d96f	1.405073
4	0x406c0702	3.6879277
5	0x3fb4866f	1.4103526
6	0x3edad951	0.42743924
7	0x4034090b	2.813052
8	0x4037d44c	2.8723326
9	0x3f33ccda	0.70234454
10	0x3fca4b2e	1.5804193
11	0x3fc5c2a7	1.5450028
12	0x3eaf5c5a	0.34250146
13	0x3f42d561	0.7610684
14	0x40249138	2.5713634
15	0x3fc31855	1.52418
16	0x3f4a022b	0.7890956
17	0x403f28bf	2.986862
18	0x3f27ad29	0.65498596
19	0x3f85fff3	1.0468735
20	0x3fd5d1e4	1.6704679
21	0x3fc19487	1.5123452
22	0x3e53aaa1	0.20670559
23	0x4037249d	2.8616097
24	0x3f0afac4	0.5428889
25	0x4012c24b	2.2931087
26	0x3f9e22b3	1.2354339
27	0x3f38ea0a	0.72232115
28	0x3f6413b8	0.8909259
29	0x3ee2d0ef	0.4430003
30	0x3fbd7055	1.4799906
31	0x3f88022e	1.0625665

edge_2.nn.0.weight f4 [64, 64]
0	0xbc3b61cf	-0.011436894
1	0x3ddcab01	0.10774804
2	0xbe2e3778	-0.17013347
3	0xbe7634b3	-0.2404354
4	0xbef8edcf	-0.48618934
5	0xbdb8d6b6	-0.09025328
6	0x3cd9c649	0.026583808
7	0x3e6f7f08	0.23388302
8	0xbe429d5a	-0.19005337
9	0xbe827a59	-0.2548397
10	0xbe008535	-0.12550814
11	0xbe0ed1c3	-0.13947205
12	0xbdcebb2e	-0.100942954
13	0x3e0346cc	0.12819976
14	0xbea2fdf2	-0.3183437
15	0xbe29d0ae	-0.16583511
16	0xbdf522fc	-0.11969563
17	0xbed63600	-0.41838074
18	0x3e415a00	0.18881989
19	0xbda7099e	-0.08156131
20	0xbe66d281	-0.22541238
21	0xbeb63c53	-0.355929
22	0xbde7f3a2	-0.11325766
23	0x3e3c9e13	0.18419676
24	0x3c985a7b	0.018597832
25	0x3e3622a5	0.17786653
26	0xbf33c545	-0.70222884
27	0x3dafbd49	0.08581025
28	0x3e03d7be	0.12875268
29	0x3e3ff40f	0.18745445
30	0x3dedeb96	0.116172
31	0xbdd45727	-0.103681855
32	0xbd84e66a	-0.064892605
33	0xbe12b614	-0.1432727
34	0xbe2ec7fd	-0.17068477
35	0xbe0c6ad9	-0.13712634
36	0x3eac52f8	0.3365705
37	0x3cc69f3e	0.024245854
38	0x3e6dc60b	0.23220079
39	0xbef46f1a	-0.47741014
40	0x3de3c77f	0.11122035
41	0xbda8666e	-0.08222662
42	0xbd77fbf2	-0.06054301
43	0xbe57ad9a	-0.21062317
44	0xbc6be06a	-0.014396766
45	0x3dd4a060	0.103821516
46	0x3e0df64e	0.13863489
47	0xbe8710ca	-0.26379997
48	0xbc354252	-0.011063175
49	0x3d042be1	0.03226841
50	0xbe5589a9	-0.20853294
51	0xbe0da5b5	-0.13832743
52	0xbe335b92	-0.175154
53	0xbd035bdc	-0.032070026
54	0x3eb0d5e8	0.34538198
55	0xbf28df8b	-0.659661
56	0x3e1e3f5e	0.1545386
57	0x3d09417c	0.033509716
58	0x3cec99fd	0.028882021
59	0xbee492f2	-0.4464336
60	0xbd45c941	-0.048287634
61	0x3ecf0c94	0.40439284
62	0xbdb7cc2d	-0.0897449
63	0x3ec66db2	0.38755566
64	0xbdf10e4d	-0.11770306
65	0x3d237352	0.0399049
66	0xbeb8a249	-0.36061314
67	0x3e133ee1	0.14379455
68	0xbe2465bd	-0.16054435
69	0xbe72a31d	-0.23695035
70	0x3e3279d9	0.17429294
71	0x3dcedf58	0.10101193
72	0xbd7c494a	-0.06159333
73	0x3ca4353c	0.020044915
74	0xbf09f889	-0.5389486
75	0xbe918a4f	-0.28425834
76	0xbdbed2a8	-0.09317523
77	0x3cfdad19	0.030966328
78	0x3ddcf4f8	0.107889116
79	0x3cb65562	0.02225751
80	0xbe2515b2	-0.16121557
81	0x3c92f657	0.01793973
82	0x3e9b130c	0.3028797
83	0x3c96cf17	0.018409295
84	0xbec8acb8	-0.39194274
85	0xbe592b8e	-0.21208021
86	0xbe2021a4	-0.15637833
87	0x3e3faefa	0.18719092
88	0x3d8f818e	0.070071325
89	0x3dbe37df	0.09288
90	0x3e9a1cd7	0.30100128
91	0x3f0c1981	0.54726416
92	0xbdcb2f84	-0.09921172
93	0xbc9e03e2	-0.01928896
94	0x3dfad4cd	0.1224762
95	0xbe628eb7	-0.22124754
96	0x3e11e9d0	0.14249349
97	0x3cc7145b	0.024301698
98	0xbe6ad292	-0.22931889
99	0xbe0c227a	-0.13685027
100	0xbd9c4599	-0.07630462
101	0x3d49bab0	0.049250305
102	0x3e52cc34	0.2058571
103	0x3eb62881	0.35577777
104	0xbe884cb1	-0.2662101
105	0xbde03922	-0.10948397
106	0xbea234c2	-0.31680876
107	0x3f543c39	0.8290439
108	0x3baa2949	0.00519291
109	0x3e4594b6	0.1929501
110	0x3e508b3c	0.20365614
111	0x3e012806	0.12612924
112	0x3d4480eb	0.04797451
113	0x3da67b18	0.08128947
114	0xbeee4b56	-0.46541852
115	0x3e0220de	0.1270785
116	0x3ef16f07	0.4715502
117	0xbe9b2dcd	-0.3030838
118	0x3cf9a9d6	0.030476492
119	0xbcf59104	-0.029976375
120	0x3dd5ce9a	0.10439797
121	0xbe96fe45	-0.29490867
122	0xbec291fd	-0.38002005
123	0xbe31d1b6	-0.17365155
124	0xbe2faac5	-0.17154987
125	0xbc70c978	-0.014696471
126	0x3ea8fbeb	0.33004698
127	0xbd055eb9	-0.032561038
128	0xbee2a744	-0.4426824
129	0xbdc7c3b7	-0.097541265
130	0xbe29fe17	-0.16600834
131	0xbf4ab535	-0.7918275
132	0xbdffd853	-0.124924324
133	0x3e6a61e4	0.22888905
134	0xbf3e7968	-0.74404
135	0xbd58a5a2	-0.052892335
136	0xbde0b33e	-0.10971688
137	0xbd8a00c7	-0.067384295
138	0xbd258cb7	-0.0404174
139	0xbdb15fda	-0.0866086
140	0x3d2a0b39	0.04151461
141	0xbe81d9c9	-0.2536147
142	0xbe0320d0	-0.12805486
143	0xbd19d783	-0.037559044
144	0xbea9646d	-0.3308443
145	0xbe771165	-0.24127729
146	0x3f10e7ba	0.56603587
147	0x3d86bb43	0.06578686
148	0xbdd8f8e4	-0.10594347
149	0xbe397cda	-0.18114033
150	0xbda3f491	-0.08005632
151	0x3bbebaf7	0.005820628
152	0xbd979dd1	-0.07403148
153	0xbd3b105a	-0.04566989
154	0xbe6dd12b	-0.23224322
155	0xbe09b918	-0.13449514
156	0x3d8469f5	0.06465522
157	0xbd5e8f97	-0.054336157
158	0x3e2046c9	0.15652002
159	0xbdd6b712	-0.10484137
160	0xbe0bd488	-0.13655293
161	0x3cfa916b	0.030586919
162	0x3e0461bc	0.12927908
163	0x3cfb6c28	0.030691221
164	0x3ed76595	0.42069688
165	0x3dfd44db	0.12366649
166	0x3c457f68	0.012054302
167	0xbe20d23e	-0.15705201
168	0xbe87afe8	-0.26501393
169	0x3ebbcd16	0.36679906
170	0xbe161481	-0.14656259
171	0xbeb720de	-0.35767263
172	0x3e06a002	0.13146976
173	0xbe07714c	-0.13226813
174	0x3e83cc64	0.25741875
175	0x3d739536	0.05946847
176	0xbdb81e54	-0.0899016
177	0xbdd2cfb8	-0.102935255
178	0x3ee3dcd7	0.44504425
179	0xbe75d36d	-0.24006434
180	0xbf0fb047	-0.5612835
181	0xbe49fb4e	-0.19724771
182	0x3eb0b13d	0.34510222
183	0xbe3ada45	-0.18247326
184	0x3d9cd013	0.076568745
185	0xbe3b2e9f	-0.18279503
186	0x3d720e6e	0.059095792
187	0xbdeb8edd	-0.115018584
188	0x3e6b9e71	0.2300966
189	0xbe9f056d	-0.31058827
190	0x3e222af2	0.15836695
191	0x3e9166d9	0.2839878
192	0x3dad2ad0	0.084554315
193	0x3e67d843	0.22641091
194	0x3e98d42e	0.2984938
195	0x3d6f0277	0.05835196
196	0x3e82873e	0.25493807
197	0xbdb3c84b	-0.08778437
198	0xbd4dac56	-0.05021318
199	0x3da10342	0.078619495
200	0x3e7a753e	0.24458787
201	0x3dfd627c	0.123723
202	0xbe12e28a	-0.1434423
203	0x3ba4d87e	0.0050306907
204	0xbdd12ed6	-0.10214011
205	0x3e148256	0.14502844
206	0xbe07c8a1	-0.13260128
207	0x3dc11280	0.09427357
208	0xbdf9f869	-0.122055836
209	0x3eaf9374	0.34292185
210	0x3e044307	0.12916194
211	0x3dd0081c	0.10157797
212	0xbcc12af5	-0.023580054
213	0x3e4f07d8	0.20217836
214	0xbc439b90	-0.011938944
215	0x3d97628d	0.07391844
216	0x3e5f29ee	0.21793339
217	0xbdaa34b2	-0.08310832
218	0x3e8afd13	0.27146205
219	0x3d7dc0c8	0.06195143
220	0x3d0f86b9	0.03504059
221	0xbdf6abf1	-0.12044514
222	0x3da87604	0.08225635
223	0x3e027399	0.1273941
224	0x3ddef43c	0.10886428
225	0xbdfc301a	-0.12313862
226	0xbe4573cf	-0.19282459
227	0x3f049b94	0.51799893
228	0xbeda2c5c	-0.4261197
229	0xbec807d3	-0.3906847
230	0x3e65d4e9	0.224445
231	0x3dbc791d	0.09202788
232	0x3de737eb	0.112899624
233	0xbf4201ae	-0.75783813
234	0xbd85e778	-0.0653829
235	0xbce2c056	-0.027679604
236	0xbe2c98bf	-0.16855143
237	0xbee321b6	-0.44361657
238	0xbe9cacfa	-0.3060072
239	0x3ddb073d	0.1069474
240	0xbe63ff2f	-0.22265314
241	0xbf8c41e4	-1.0957608
242	0x3e2776a4	0.16353852
243	0x3e4116b9	0.18856324
244	0x3d129b54	0.035792664
245	0xbe730b5b	-0.237348
246	0x3ea8fff9	0.33007792
247	0xbe4b4587	-0.19850741
248	0x3d223ab4	0.039606765
249	0x3e8da499	0.2766464
250	0xbfa783f8	-1.3087149
251	0x3e2ee300	0.17078781
252	0xbc96d2d7	-0.018411083
253	0xbdab5425	-0.08365659
254	0x3e9b6eae	0.3035788
255	0xbe12375d	-0.14278932

edge_2.nn.0.bias f4 [64]
0	0xbe00a5cf	-0.12563251
1	0xbe8cc741	-0.2749577
2	0x3e0770a1	0.13226558
3	0xbeb67391	-0.35635045
4	0xbc943a32	-0.018094156
5	0x3d95ff0b	0.07324036
6	0xbe38c25f	-0.18042897
7	0xbcff43fd	-0.031160349
8	0xbe1325a7	-0.14369832
9	0xbe538c31	-0.20658948
10	0xbde2768b	-0.110577665
11	0xbe2fe450	-0.17176938
12	0x3d2f832a	0.042849697
13	0xbe29649a	-0.16542283
14	0x3d2ab79e	0.041679017
15	0xbf01171e	-0.504259
16	0xbe685ed8	-0.2269243
17	0xbd1f2271	-0.038851205
18	0xbe0475e9	-0.12935604
19	0xbd05bee6	-0.032652758
20	0x3e1d43b5	0.1535786
21	0x3ed2918a	0.41126662
22	0xbeaba88a	-0.33527023
23	0xbeb7f5ab	-0.35929617
24	0x3de8b5b9	0.11362786
25	0x3bf51d50	0.007480301
26	0xbc5a5e6f	-0.013328179
27	0x3e8c8d9f	0.27451798
28	0x3d2820d9	0.04104695
29	0xbe9521e3	-0.29127416
30	0x3e39e283	0.18152814
31	0x3c832977	0.016010983
32	0xbdcf7d38	-0.101313055
33	0xbef1c1e5	-0.47218242
34	0xbd671800	-0.056419373
35	0xbe1b7f69	-0.15185322
36	0x3cc02ec6	0.023459803
37	0x3e5d7c1b	0.21629374
38	0x3e5d0c49	0.21586718
39	0x3dfb4043	0.12268116
40	0x3e65c918	0.22439992
41	0xbe56d46d	-0.20979472
42	0xbde37c8f	-0.11107742
43	0xbd586ffe	-0.05284118
44	0x3df6c863	0.120499395
45	0x3d896848	0.06709343
46	0xbe278403	-0.16358952
47	0x3a6e1511	0.00090821186
48	0xbb9428e0	-0.0045214742
49	0x3e51ff6b	0.2050759
50	0xbcd32204	-0.025773056
51	0x3e395f44	0.18102747
52	0xbdce93d4	-0.1008679
53	0x3b2640f3	0.0025368303
54	0x3dee2b69	0.116293736
55	0xbbc9525b	-0.0061438507
56	0xbe318cb5	-0.17338832
57	0xbe57f211	-0.21088435
58	0x3e667ec3	0.22509293
59	0x3e599eb0	0.2125194
60	0xbd83dff7	-0.06439202
61	0xbcf649ab	-0.030064424
62	0x3e2aa2e7	0.16663705
63	0x3d316286	0.04330685

edge_2.nn.1.weight f4 [64]
0	0x3ee62a96	0.44954365
1	0x3f5c3a4b	0.8602645
2	0x3ef1bfd5	0.4721667
3	0x3f5287a9	0.8223825
4	0x3f365982	0.7123033
5	0x3fa4c0ec	1.2871375
6	0x3f7ff1e5	0.99978477
7	0x3f5c4907	0.8604893
8	0x3f25d243	0.6477396
9	0x3f89612a	1.0732777
10	0x3f6e4f21	0.9308949
11	0x3f4069d6	0.7516149
12	0x3eaa633e	0.3327884
13	0x3f0300d0	0.51173115
14	0x3f6ccb7e	0.92498004
15	0x3f3c2cca	0.7350584
16	0x3f780ccd	0.9689453
17	0x3f316fd8	0.69311285
18	0x3f77bd07	0.9677281
19	0x3f871dc6	1.0555961
20	0x3f3c3973	0.7352516
21	0x3efdd39f	0.49575517
22	0x3f77aa48	0.96744204
23	0x3f80154c	1.0006499
24	0x3f82df79	1.0224448
25	0x3f5101fc	0.8164365
26	0x3f5ec993	0.8702633
27	0x3f77bcd0	0.9677248
28	0x3f9127e1	1.1340295
29	0x3f781d57	0.9691977
30	0x3f3eb660	0.7449703
31	0x3f12db7d	0.5736616
32	0x3f8bb9bb	1.0916055
33	0x3f8170db	1.0112566
34	0x3f12164d	0.5706528
35	0x3f621edd	0.88328344
36	0x3f0ab72d	0.54185754
37	0x3f410d42	0.75410855
38	0x3ef77cd2	0.48337418
39	0x3f82c051	1.021494
40	0x3f77bd13	0.9677288
41	0x3f056dd6	0.5212072
42	0x3f4bcc21	0.7960835
43	0x3f46a6ed	0.7759846
44	0x3f12249c	0.5708711
45	0x3f7e4821	0.9932881
46	0x3f3de409	0.7417608
47	0x3f59337c	0.84844184
48	0x3f424156	0.75880945
49	0x3ee9b52c	0.45646036
50	0x3f83f829	1.0310107
51	0x3f464e69	0.77463394
52	0x3eeb1bc0	0.4591961
53	0x3f6c31cc	0.92263484
54	0x3fa4a5c2	1.2863085
55	0x3f6c55f1	0.92318636
56	0x3f6911bb	0.9104268
57	0x3f834671	1.0255872
58	0x3f561fd3	0.8364231
59	0x3f796c26	0.97430646
60	0x3f82846e	1.0196664
61	0x3ed37543	0.413004
62	0x3f507387	0.8142628
63	0x3f5d3a4f	0.86417097

edge_2.nn.1.bias f4 [64]
0	0xbf00eb83	-0.5035936
1	0xbf5630cf	-0.83668226
2	0xbe4337e4	-0.1906429
3	0xbf6bb6b6	-0.9207567
4	0xbe83199c	-0.25605476
5	0xbe424c9e	-0.1897454
6	0xbf33dcc7	-0.70258754
7	0xbf2b05d9	-0.668058
8	0xbef1cf11	-0.47228292
9	0xbeced657	-0.40397903
10	0xbf2813fe	-0.65655506
11	0xbe0298d3	-0.1275361
12	0xbc1ef692	-0.009702342
13	0xbe77a08b	-0.24182336
14	0xbece07cb	-0.4024032
15	0xbf008c3a	-0.5021397
16	0xbf152186	-0.5825428
17	0xbf23885f	-0.6387996
18	0xbf3cbe0a	-0.73727477
19	0xbf604da8	-0.87618494
20	0xbf07ac5c	-0.52997375
21	0xbf8fd12c	-1.1235709
22	0xbf1ae7c2	-0.60509884
23	0xbeba0ace	-0.36336368
24	0xbe9bffea	-0.30468684
25	0xbeafed1d	-0.3436059
26	0xbf258ea4	-0.6467078
27	0xbf1bbe03	-0.6083681
28	0xbdebd5c0	-0.11515379
29	0xbf3f0fe9	-0.7463365
30	0xbeb6201c	-0.35571373
31	0xbe884f9d	-0.2662324
32	0xbeeca4a5	-0.46219364
33	0xbf17c0e5	-0.5927871
34	0x3dfaa943	0.12239315
35	0xbd4b10f8	-0.04957673
36	0xbf3b1d1b	-0.73091286
37	0xbf5f03a4	-0.8711493
38	0xbf86daeb	-1.0535558
39	0xbe9a5c52	-0.3014856
40	0xbe9a6a20	-0.30159092
41	0xbf23db93	-0.6400692
42	0x3e0bd687	0.13656054
43	0xbe90c19d	-0.28272715
44	0x3d9204d0	0.07129824
45	0xbeb58eca	-0.35460502
46	0xbdca2aa7	-0.098714165
47	0xbf4559a1	-0.7708989
48	0xbec2cc87	-0.38046667
49	0xbf8d7782	-1.1052096
50	0xbf532a1f	-0.82486147
51	0xbf42cb49	-0.7609144
52	0xbfa47236	-1.2847354
53	0xbefcc190	-0.49366426
54	0xbeeebcd6	-0.46628445
55	0x3dfea22f	0.12433278
56	0xbe15fb98	-0.14646757
57	0xbdc6f8a9	-0.09715397
58	0xbeec533a	-0.46157247
59	0xbf7033d7	-0.938291
60	0xbf70ff26	-0.94139326
61	0xbe5b8498	-0.21437299
62	0xbf09057b	-0.5352399
63	0xbf07d5f9	-0.5306087

edge_2.nn.1.running_mean f4 [64]
0	0xc00ccdd0	-2.2000618
1	0xbe8c38f2	-0.27387196
2	0xbfd6b54b	-1.6774076
3	0x3f949c6b	1.1610235
4	0xbf981317	-1.1880826
5	0xbf66f793	-0.9022152
6	0xbf24a657	-0.64316314
7	0xbf441bf7	-0.7660517
8	0x3fcc8c71	1.5980359
9	0xbeb80e71	-0.35948518
10	0xbf808f84	-1.0043797
11	0xbfc3a907	-1.5285958
12	0xc04c2d7c	-3.1902761
13	0x3e942c73	0.28940162
14	0xbfeccbea	-1.849973
15	0xc011b25f	-2.276512
16	0xc022667c	-2.5375051
17	0x3e0a7315	0.13520463
18	0x3d349a29	0.04409233
19	0xbf3b404a	-0.7314497
20	0x3fa739f9	1.3064567
21	0x40653c4b	3.581805
22	0xbe6a3b3e	-0.22874162
23	0xbf79f3fe	-0.9763793
24	0xbf1e6e96	-0.6188749
25	0xbfd8b094	-1.6928887
26	0xbf7c1a1c	-0.9847734
27	0xbf6aae3a	-0.916721
28	0xbf96ced8	-1.1781874
29	0xbf63828b	-0.8887107
30	0x3fc79961	1.5593683
31	0xc03b38dc	-2.9253454
32	0xbeda162d	-0.42595044
33	0xbfb5107a	-1.4145653
34	0xc01f8f09	-2.4931052
35	0xbfae12db	-1.3599504
36	0x3fe8cfdb	1.8188432
37	0xbf14cb92	-0.58123124
38	0x4069c31e	3.652534
39	0xbfd0b4a8	-1.6305132
40	0xbfcc9261	-1.5982171
41	0x3ce5b018	0.02803807
42	0xc0466427	-3.0998628
43	0xc003f972	-2.0621
44	0xc0199386	-2.399629
45	0xbebd1b11	-0.36934713
46	0xc019e557	-2.4046228
47	0xbce7d992	-0.028301988
48	0xbf598a34	-0.84976506
49	0x406cb988	3.698824
50	0xbe050c19	-0.12992896
51	0xbf0991a3	-0.5373785
52	0x4040c527	3.0120332
53	0xbe863b5e	-0.2621717
54	0xbee59079	-0.44836786
55	0xc019c5a4	-2.402688
56	0x3f262d5a	0.6491295
57	0xc02784dc	-2.617484
58	0xbfcde567	-1.6085633
59	0xbf82dafd	-1.022308
60	0xbfdeda43	-1.7410358
61	0xbfe25b2a	-1.7684071
62	0xbfcc4f71	-1.5961744
63	0x3ecdec46	0.40219325

edge_2.nn.1.running_var f4 [64]
0	0x3f94ac41	1.1615068
1	0x3f2ced37	0.6754946
2	0x3fd3c66e	1.6544931
3	0x3fc33395	1.5250117
4	0x3fbe0a9b	1.4846987
5	0x400cf88e	2.2026706
6	0x3ea07e92	0.31346565
7	0x3fa22b9b	1.2669557
8	0x3fa9548f	1.322893
9	0x3f32e555	0.6988118
10	0x3f107223	0.5642416
11	0x3ffde5d1	1.9835759
12	0x408fc403	4.492677
13	0x3f5c1338	0.85966825
14	0x3f3de04a	0.7417036
15	0x3f51bf74	0.8193276
16	0x40337439	2.8039687
17	0x3efaa006	0.48950213
18	0x3ef94217	0.48683235
19	0x3f2e87c0	0.6817589
20	0x3f2f42e2	0.6846143
21	0x3fc9cb4f	1.576517
22	0x3f527e34	0.8222382
23	0x3f904946	1.1272361
24	0x3fdea018	1.7392607
25	0x3fbef272	1.4917738
26	0x3fb0e9ab	1.382131
27	0x3f14f95c	0.5819299
28	0x4020ddbc	2.5135336
29	0x3efe1925	0.4962856
30	0x3f559437	0.8342928
31	0x40544602	3.316773
32	0x3f93ab65	1.153668
33	0x3f81f429	1.0152637
34	0x40876c81	4.231995
35	0x401f7e00	2.4920654
36	0x40059400	2.0871582
37	0x3ed72c14	0.42025816
38	0x3fe80910	1.8127766
39	0x402a075a	2.6566987
40	0x40326de2	2.7879567
41	0x3f05fd99	0.52340084
42	0x4083e6b0	4.12191
43	0x4027a68d	2.6195405
44	0x40425dd5	3.036977
45	0x3f943c63	1.1580929
46	0x405f2d28	3.487131
47	0x3f4e5598	0.80599356
48	0x3f15d0e4	0.58521867
49	0x3ffd2da7	1.9779557
50	0x3f47f6ef	0.78111166
51	0x3f50ca2f	0.8155851
52	0x3fc88dbb	1.5668253
53	0x3fb46345	1.4092795
54	0x3f80b13f	1.0054091
55	0x407bdc29	3.9353125
56	0x3f5bacb5	0.85810405
57	0x40319d1a	2.7752137
58	0x3f2230c3	0.63355654
59	0x3f528ff2	0.82250893
60	0x3f66a25d	0.90091497
61	0x3ff82142	1.938515
62	0x4046f811	3.1088908
63	0x3f96c93c	1.1780162

edge_2.nn.3.weight f4 [64, 64]
0	0xbe915d03	-0.28391275
1	0xbd8de5f3	-0.06928625
2	0x3e3287fe	0.1743469
3	0xbe68fbf1	-0.22752358
4	0xbee24b10	-0.44197893
5	0xbf12ce15	-0.57345706
6	0x3c0a0450	0.00842388
7	0xbe411306	-0.18854913
8	0x3d02347f	0.031788345
9	0xbdb42e8e	-0.08797942
10	0x3e27a15a	0.16370144
11	0x3eb7094c	0.3574928
12	0xbe20a20d	-0.15686817
13	0x3dfedd6b	0.12444576
14	0xbce98953	-0.028507864
15	0x3e6d9c75	0.23204215
16	0x3e0b132b	0.13581531
17	0xbe37622b	-0.17908542
18	0x3e8aa9f9	0.27082804
19	0x3ea31b50	0.31856775
20	0xbdc905d4	-0.09815565
21	0xbd0883f9	-0.033328984
22	0x3915c4c8	0.00014283054
23	0x3efa3d98	0.48875117
24	0xbe9435eb	-0.28947386
25	0x3e48acd2	0.19597176
26	0xbea71e83	-0.32640466
27	0x3ed9d20e	0.42543072
28	0x3d546bfa	0.051860787
29	0xbd8caa4b	-0.06868418
30	0x3e96fc8e	0.2948956
31	0xbe5a66b4	-0.2132824
32	0xbee5b74d	-0.4486641
33	0x3dd8ee0f	0.10592281
34	0x3c0d9bd0	0.008643106
35	0xbd9cbe97	-0.0765354
36	0xbeed26ff	-0.46318814
37	0x3eb3be06	0.35105914
38	0xbd58a6bf	-0.052893396
39	0xbe15c980	-0.14627647
40	0x3e35799e	0.17722175
41	0x3cbf430e	0.023347404
42	0xbd9d70d4	-0.07687536
43	0xbe7b77b8	-0.24557388
44	0xbe226abd	-0.1586103
45	0x3e19730f	0.14985298
46	0x3b87e93b	0.0041476763
47	0x3ee15262	0.44008166
48	0x3de74d8f	0.1129409
49	0xbe530293	-0.2060645
50	0xbe810e60	-0.2520628
51	0x3e7cfbef	0.2470548
52	0x3e9e0372	0.30862004
53	0xbdf3b345	-0.11899427
54	0xb89db6f6	-7.5204225e-05
55	0x3e474966	0.19461593
56	0xbe69dd62	-0.22838357
57	0xbd91a79a	-0.071120456
58	0x3e78b57f	0.24287985
59	0x3e70fd02	0.23534015
60	0xbe89abfb	-0.26889023
61	0xbe5e315e	-0.2169852
62	0xbe928846	-0.28619593
63	0x3cd530a5	0.026024172
64	0xbe8336dd	-0.25627795
65	0xbe607e39	-0.2192315
66	0x3d07e930	0.03318137
67	0x3c25464a	0.010087559
68	0xbc1a6386	-0.009423142
69	0xbe95942b	-0.29214606
70	0x3e954ccb	0.2916015
71	0x3caafa6f	0.02087137
72	0xbd1d3ea4	-0.038389817
73	0xbec421f6	-0.3830716
74	0xbee48603	-0.44633493
75	0x3dd1595b	0.10222121
76	0xbcc5d567	-0.02414961
77	0x3dbab75a	0.09117003
78	0x3d669f0b	0.05630402
79	0xbe752e71	-0.23943497
80	0xbe84a9e9	-0.2591088
81	0xbd9eb4c8	-0.07749325
82	0xbe8fb08c	-0.28064382
83	0xbeabfeef	-0.33592936
84	0xbd2437f7	-0.040092435
85	0x3dafbc1f	0.08580803
86	0xbe288e01	-0.1646042
87	0x3e0ae690	0.13564515
88	0xbea858a0	-0.32880116
89	0x3e233fc6	0.15942296
90	0x3c20bf3c	0.009811219
91	0x3eb2bb93	0.34908733
92	0x3dc7675b	0.0973651
93	0x3d33e829	0.043922577
94	0xbd94d1eb	-0.07266601
95	0x3e00ffd0	0.12597585
96	0xbe7a1e3c	-0.24425596
97	0x3edf3995	0.4359862
98	0xbe7ee747	-0.24892913
99	0xbe706581	-0.2347622
100	0xbe39c5ea	-0.18141904
101	0x3d485ecf	0.04891854
102	0x3e587ae8	0.21140635
103	0x3e6682e7	0.22510873
104	0xbd17d841	-0.03707147
105	0xbf2c5247	-0.67313045
106	0x3ea8af39	0.32946184
107	0xbd7ffad0	-0.062495053
108	0x3e72a8ed	0.23697253
109	0xbd56b1ce	-0.05241566
110	0xbe6298e2	-0.22128633
111	0xbdc86c6e	-0.09786306
112	0x3ce2581d	0.027629906
113	0xbd23e5a1	-0.040013913
114	0x3d95c570	0.07313049
115	0x3df618b3	0.1201643
116	0x3e32adb2	0.17449072
117	0xbd4b112e	-0.04957693
118	0x3e8c92f7	0.27455875
119	0xbea4209e	-0.32056135
120	0xbdc28a06	-0.09498982
121	0x3e91ce2a	0.28477603
122	0xbe810963	-0.25202474
123	0xbf39bbb2	-0.72552025
124	0xbf279198	-0.65456533
125	0x3dd82ebd	0.105557896
126	0x3df95d84	0.1217604
127	0x3e5d8d5f	0.2163596
128	0xbe355b68	-0.1771065
129	0xbe80f911	-0.25190023
130	0xbde5ab96	-0.11214368
131	0x3e14a978	0.14517772
132	0xbe3e8830	-0.18606639
133	0xbf1ba721	-0.60801893
134	0x3ef8fbe6	0.48629683
135	0x3d8dba4f	0.06920301
136	0xbd6108e9	-0.054940138
137	0xbe742c76	-0.23845086
138	0xbf013e7a	-0.50485957
139	0xbcd7ca4e	-0.026341584
140	0xbcf357c8	-0.029704943
141	0xbe679a4f	-0.22617458
142	0x3e29160a	0.16512313
143	0xbdbda1c7	-0.09259372
144	0xbedc6063	-0.43042287
145	0xbd2c7108	-0.042099983
146	0xbe41cdf0	-0.18926215
147	0xbe889c66	-0.26681823
148	0xbe5a677c	-0.21328539
149	0x3d7c6b73	0.06162591
150	0xbda9bc09	-0.08287818
151	0x3e73b0d7	0.23797928
152	0xbece4cac	-0.4029287
153	0x3df98bf6	0.121848986
154	0xbda7d000	-0.0819397
155	0x3dc398c6	0.095506236
156	0x3e03ed33	0.12883453
157	0xbdcebcad	-0.10094581
158	0x3e329ed1	0.17443396
159	0x3de56003	0.111999534
160	0xbe94f926	-0.29096335
161	0x3e5f3216	0.2179645
162	0xbe39b50d	-0.18135472
163	0xbe0edbb8	-0.13951004
164	0x3db55e72	0.08855905
165	0x3df80e76	0.12112133
166	0x3e60f4d6	0.21968397
167	0x3e320496	0.17384562
168	0xbe0d57fe	-0.13803098
169	0xbf208674	-0.6270516
170	0x3e4dc712	0.2009547
171	0x3c494b0d	0.01228596
172	0x3cd93399	0.026513861
173	0xbccc0216	-0.024903338
174	0xbe81b98f	-0.25336882
175	0xbcfc2001	-0.03077698
176	0xbe557755	-0.20846303
177	0x3e39bfc0	0.18139553
178	0x3e496b0f	0.19669746
179	0xbdd4cd42	-0.10390712
180	0xbe4efb27	-0.20212995
181	0x3d19f8af	0.03759068
182	0x3e829e5b	0.2551144
183	0xbe44f863	-0.19235377
184	0xbe416ada	-0.18888417
185	0x3e660204	0.22461706
186	0x3dcb30cc	0.09921417
187	0xbf2d78eb	-0.6776263
188	0xbf51911c	-0.81862044
189	0x3dcf4db5	0.10122243
190	0xbd0eae34	-0.0348341
191	0x3ee12e9f	0.43980882
192	0x3db9e38d	0.09076605
193	0xbe0bab0e	-0.13639471
194	0x3d27d5c2	0.04097534
195	0xbdbf81a5	-0.093508996
196	0x3d4c1184	0.04982139
197	0xbdc84e03	-0.097805046
198	0xbdbc7354	-0.092016846
199	0xbe52a8ae	-0.20572159
200	0xbe4eb125	-0.20184763
201	0xbe76b663	-0.24093013
202	0x3e20446e	0.15651104
203	0x3d69e760	0.057105422
204	0x3cb2f86f	0.021846978
205	0xbd97f36c	-0.07419476
206	0xbe222dca	-0.1583778
207	0x3e0e44f7	0.13893496
208	0xbdcdd8a7	-0.10051089
209	0xbd5acb2e	-0.053416423
210	0xbe4a871e	-0.19778106
211	0x3f0a7860	0.5408993
212	0xbe842f1a	-0.25817186
213	0x3e786b6a	0.24259725
214	0x3f1378a8	0.5760598
215	0x3e474515	0.19459946
216	0x3e015d98	0.1263336
217	0xbdb0b5fe	-0.08628462
218	0xbebec154	-0.37256873
219	0x3de032ea	0.10947211
220	0xbe95c9fa	-0.29255658
221	0x3e508dda	0.20366612
222	0x3e6819ec	0.22666138
223	0xbe318ba2	-0.17338422
224	0x3dc74a31	0.09730948
225	0xbd281947	-0.04103973
226	0x3ddd90f1	0.10818661
227	0xbd55cd3e	-0.052197687
228	0xbc7b2b9c	-0.0153302215
229	0xbee71975	-0.4513661
230	0x3dbe7421	0.092994936
231	0x3d7dd5f9	0.06197164
232	0x3eb36344	0.3503667
233	0x3d6c190d	0.057641078
234	0x3e631f91	0.2218001
235	0xbdce470a	-0.100721434
236	0x3e9d6120	0.30738163
237	0xbef6b301	-0.48183444
238	0x3e3b5ebf	0.18297862
239	0xbf1bee08	-0.6091008
240	0xbee728dd	-0.45148364
241	0x3e3e323e	0.18573853
242	0x3df7c012	0.120971814
243	0xbf107d00	-0.56440735
244	0x3d8980d1	0.06714023
245	0xbe78bfb3	-0.24291877
246	0xbe1265d8	-0.14296663
247	0xbe4ce1ea	-0.20008054
248	0xbe665bbf	-0.22495936
249	0x3da4258a	0.080149725
250	0x3f17d309	0.5930639
251	0xbea81cfd	-0.32834616
252	0xbdd68b35	-0.104757704
253	0xbd8684d5	-0.065683044
254	0x3dd55168	0.10415918
255	0xbde290f0	-0.11062801

edge_2.nn.3.bias f4 [64]
0	0xbd9d6df9	-0.07686991
1	0xbd66b984	-0.056329265
2	0x3e893de6	0.26805037
3	0xbe0475e7	-0.12935601
4	0xbec66368	-0.38747716
5	0xbe076e59	-0.13225688
6	0xbdc543d5	-0.096320786
7	0x3cb7e876	0.022449713
8	0xbe6f56b7	-0.23372923
9	0xbea1a7f9	-0.31573465
10	0x3e04c92a	0.12967363
11	0xbe5ec70d	-0.2175562
12	0xbecdb089	-0.40173748
13	0x3ded63fd	0.11591337
14	0x3cec8be9	0.028875308
15	0xbee6d9d6	-0.4508807
16	0x3e0d4353	0.13795213
17	0x3eef33fb	0.46719345
18	0xbe1cb9c6	-0.15305242
19	0x3d13c14b	0.03607301
20	0x3c986125	0.01860101
21	0xbddb8cbf	-0.107202046
22	0x3d40ce4e	0.047071747
23	0xbdafddfc	-0.08587262
24	0xbe1e100f	-0.15435813
25	0xbedecc72	-0.43515354
26	0xbe949d0a	-0.2902606
27	0x3e143609	0.14473738
28	0x3dd8d318	0.10587138
29	0x3e7b846c	0.24562234
30	0x3e4d9eeb	0.20080154
31	0x3d08d257	0.03340372
32	0x3e00c112	0.1257365
33	0x3d36d8e5	0.04464044
34	0xbe2095e2	-0.15682176
35	0xbe43c67c	-0.19118685
36	0x3bb1fed6	0.00543199
37	0xbe1eaf70	-0.15496612
38	0x3c80a9ea	0.015706021
39	0x3e2b02f5	0.16700347
40	0x3e2560ac	0.16150159
41	0x3e5ce37a	0.2157115
42	0xbded7c98	-0.1159603
43	0x3e48bf21	0.1960416
44	0xbe7a5087	-0.24444781
45	0x3ed3b4ff	0.41349027
46	0x3d83b0d0	0.06430209
47	0xbd2df7c7	-0.042472627
48	0xbdcb20f7	-0.09918397
49	0x3f0bd05f	0.54614824
50	0x3e8d5ab8	0.27608275
51	0x3da45f11	0.08025945
52	0xbeabf101	-0.3358231
53	0x3e6fd1e1	0.23419906
54	0x3ee8f7a0	0.45501423
55	0xbddb5f5a	-0.10711546
56	0xbd90d040	-0.070709705
57	0xbd223c68	-0.03960839
58	0xba401e7a	-0.000732876
59	0x3dd0302b	0.10165437
60	0x3ddbbc16	0.10729234
61	0xbd5bdeed	-0.053679395
62	0xbd6f2907	-0.058388736
63	0xbcb51818	-0.022106215

edge_2.nn.4.weight f4 [64]
0	0x3f90057a	1.1251671
1	0x3f9f9b65	1.2469298
2	0x3fa6958c	1.3014388
3	0x3f9ee37d	1.2413174
4	0x3fa8e5dc	1.3195148
5	0x3f97586c	1.1823859
6	0x3f9199bc	1.1375041
7	0x3fc93a16	1.5720851
8	0x3fa02bf3	1.2513412
9	0x3fcfe58f	1.6241931
10	0x3f92f64a	1.1481411
11	0x3f897f4f	1.0741976
12	0x3f9720c7	1.1806878
13	0x3f961363	1.1724666
14	0x3f97b136	1.1850955
15	0x3f9fd973	1.2488235
16	0x3f9a9081	1.2075349
17	0x3f97bbb1	1.1854154
18	0x3f8e778e	1.1130235
19	0x3f89bac9	1.0760127
20	0x3f957889	1.167741
21	0x3f96c041	1.1777421
22	0x3fa63e58	1.2987776
23	0x3f9646d7	1.1740369
24	0x3fb2342d	1.3922173
25	0x3fa9f847	1.3278893
26	0x3f96fd63	1.1796077
27	0x3f9b506d	1.2133919
28	0x3ff6156c	1.9225287
29	0x3fcd5afe	1.6043394
30	0x3f939956	1.153117
31	0x3fbd32e4	1.4781156
32	0x3f970b10	1.1800251
33	0x3f9ae3d1	1.2100774
34	0x3f8eeb10	1.1165485
35	0x3f8e3fa6	1.1113174
36	0x3f92418e	1.1426256
37	0x3f938052	1.1523535
38	0x3f9d6a42	1.2298052
39	0x3f991794	1.196032
40	0x3fa32c01	1.2747804
41	0x3f8c8992	1.0979483
42	0x3fac7d25	1.3475691
43	0x3f9aefb3	1.21044
44	0x3f940ca6	1.156636
45	0x3fc29f66	1.5204895
46	0x3fb7ded6	1.4364879
47	0x3f9fd685	1.2487341
48	0x3fb7a847	1.4348229
49	0x3f9f261c	1.2433505
50	0x3fa94205	1.3223273
51	0x3f98041f	1.1876258
52	0x3fcb1db4	1.586844
53	0x3f96a4b3	1.1769012
54	0x3f9bb1ff	1.2163695
55	0x3fb6f0c1	1.4292222
56	0x3f70d493	0.9407436
57	0x3face092	1.3506033
58	0x3f8cc428	1.0997362
59	0x3f946fca	1.1596615
60	0x3f8f6658	1.1203108
61	0x3fa0ab66	1.2552307
62	0x3fb325a5	1.3995863
63	0x3f96dfe0	1.1787071

edge_2.nn.4.bias f4 [64]
0	0xbeb2b6b0	-0.34905005
1	0xbec369bf	-0.38166615
2	0xbe69024c	-0.22754782
3	0xbe806846	-0.25079554
4	0xbf1f81e1	-0.62307554
5	0xbed3cd19	-0.41367415
6	0xbf27ebe5	-0.6559432
7	0xbe76edee	-0.241142
8	0xbe7036c1	-0.23458387
9	0xbe0b74f3	-0.13618831
10	0xbf14e50b	-0.5816199
11	0xbf06290d	-0.5240639
12	0xbec84e79	-0.3912237
13	0xbf0ccd29	-0.5500055
14	0xbf016c6f	-0.5055608
15	0xbf094ca6	-0.5363258
16	0xbea90fc4	-0.3301984
17	0xbf15ed31	-0.5856505
18	0xbee9e1af	-0.45679995
19	0xbf0dbefe	-0.55369556
20	0xbf14f15c	-0.58180785
21	0xbefbe238	-0.4919603
22	0xbf1883bf	-0.5957603
23	0xbf01e809	-0.5074468
24	0xbe41f31f	-0.189404
25	0xbe7dd49d	-0.24788137
26	0xbe9c8d73	-0.30576667
27	0xbed25e8a	-0.41087753
28	0x3e06b8af	0.13156389
29	0xbe2c9d74	-0.16856939
30	0xbf0542de	-0.52055156
31	0xbf19b06a	-0.6003481
32	0xbec5c0c0	-0.3862362
33	0xbe945d60	-0.2897749
34	0xbed4402b	-0.41455206
35	0xbefd7f46	-0.49511164
36	0xbef7917a	-0.48353177
37	0xbef20f92	-0.47277504
38	0xbe0c1024	-0.13678032
39	0xbf2cb36b	-0.6746127
40	0xbec106a2	-0.37700373
41	0xbec40829	-0.38287476
42	0xbe869372	-0.26284367
43	0xbe3e99d1	-0.18613364
44	0xbef00ae4	-0.4688331
45	0xbe92d446	-0.28677577
46	0xbe5e681a	-0.21719399
47	0xbe9e4bbd	-0.3091716
48	0xbdbbd1a8	-0.09170848
49	0xbefd0448	-0.4941733
50	0xbf0a29df	-0.5397014
51	0xbebc3fa3	-0.367673
52	0xbcc110f3	-0.023567652
53	0xbf0b7009	-0.5446783
54	0xbeb3167e	-0.34978098
55	0xbe9d07f6	-0.30670136
56	0xbf11ee9b	-0.5700471
57	0xbe991a7f	-0.29903027
58	0xbf1c133f	-0.6096687
59	0xbea7adaa	-0.32749683
60	0xbe6e688d	-0.2328207
61	0xbeddf2df	-0.43349358
62	0xbf18f2fa	-0.5974575
63	0xbe953c04	-0.2914735

edge_2.nn.4.running_mean f4 [64]
0	0xbe89d7de	-0.26922506
1	0xbe9f4944	-0.31110585
2	0xbe22a991	-0.15884997
3	0xbe96fab5	-0.2948815
4	0xbf3d0410	-0.73834324
5	0xbf5cf860	-0.8631649
6	0xbf01f9e4	-0.5077193
7	0x3e3a7e93	0.18212347
8	0xbeed1aa8	-0.463094
9	0xbe83691f	-0.2566614
10	0xbe641be6	-0.22276267
11	0xbe94c0e5	-0.29053417
12	0xbf56049f	-0.836008
13	0xbe85aed1	-0.26109937
14	0xbe2ac356	-0.16676077
15	0xbf3c3ff0	-0.7353506
16	0xbf4af2e9	-0.792769
17	0x3e0e9e88	0.13927662
18	0xbe1b06c5	-0.15139301
19	0xbe8a99b8	-0.27070403
20	0xbe8f38b1	-0.2797294
21	0xbf400ec3	-0.75022525
22	0xbe916353	-0.2839609
23	0xbf2c6497	-0.6734099
24	0xbdbf4069	-0.09338457
25	0xbf1303ae	-0.5742749
26	0xbf37e5ac	-0.71834826
27	0x3e7b83da	0.24562016
28	0x3de1c7e2	0.11024453
29	0x3e60f924	0.2197004
30	0xbe74f505	-0.23921593
31	0xbe44682c	-0.19180363
32	0xbdab3d6e	-0.08361326
33	0x3eb3f462	0.35147387
34	0xbe39990e	-0.18124792
35	0xbd5cc890	-0.05390221
36	0xbe8a78e7	-0.27045366
37	0xbf032575	-0.5122903
38	0xbe55c1cd	-0.2087471
39	0xbe63cb2f	-0.22245477
40	0xbdd7108b	-0.10501202
41	0x3f03118a	0.5119864
42	0xbeca7e1d	-0.39549342
43	0x3e32f9c5	0.17478092
44	0xbe5f7efa	-0.21825781
45	0x3f29789f	0.6619968
46	0x3d2ef313	0.042712282
47	0xbe35a9df	-0.17740582
48	0xbd91daff	-0.07121848
49	0x3f2b4740	0.66905594
50	0xbc1ca111	-0.009559886
51	0xbda265bb	-0.0792956
52	0xbeb25e5c	-0.34837615
53	0x3bbb399c	0.0057136547
54	0x3f00079c	0.5001161
55	0xbe049a24	-0.12949425
56	0xbe259320	-0.16169405
57	0xbd2f79e2	-0.042840846
58	0x3e1611c2	0.14655212
59	0x3e7c63ef	0.24647497
60	0xbefceba1	-0.4939852
61	0xbe72ddc4	-0.2371741
62	0xbe8de344	-0.27712452
63	0xbeaf7fc9	-0.3427718
